checkpoint.pth (torch_old, 19719 bytes, 6 tensors)

hiddens.0.weight f4 [64, 37]
000000 af 53 6e bd 68 1e 17 be 70 86 87 bd aa e3 09 3e
       -0.058185276 -0.14757693 -0.06617439 0.13465753
000010 99 b0 d3 bb 03 f6 f6 bb 38 47 a4 be e9 75 9d bd
       -0.006460261 -0.007536651 -0.32085586 -0.07688505
000020 09 d7 91 3e e2 68 18 bf 65 f2 19 be e7 db 22 be
       0.2848437 -0.5953504 -0.15033872 -0.15904199
000030 a1 b5 c6 bd 0a d8 22 3e a3 2a 25 3e 8f 04 53 be
       -0.09702612 0.15902725 0.16129546 -0.20607208
000040 56 99 37 3d 5f 36 1a 3d 62 96 41 3e ce f2 1a 3e
       0.044823967 0.03764951 0.18905023 0.15131685
000050 ba b5 f0 3c 8b 61 5f 3d 24 a2 00 bd c8 8a 31 3e
       0.029383529 0.054536384 -0.03140463 0.17338097
000060 1c 6f c2 bd bd 13 50 be 78 9f b7 3d 4e 34 f5 bd
       -0.09493849 -0.2032003 0.08965963 -0.11972867
000070 82 7c 33 3e 75 38 32 3d f7 61 2a bc eb a0 78 be
       0.17527965 0.043510873 -0.010399333 -0.24280135
000080 ac fb 57 3d e4 05 4c 3d 59 4e 80 be 68 3d 53 bc
       0.052730247 0.049810305 -0.25059775 -0.012893058
000090 e7 f7 19 bd f4 9d 39 3e 79 54 9c 3b 0b bd 21 3e
       -0.037589934 0.1812666 0.004770812 0.1579477
0000a0 7a 30 10 3e 04 0e de bd ab 6f 01 3e 78 c4 e9 bd
       0.14080992 -0.10842517 0.12640254 -0.114144266
0000b0 f9 2c 2e be 81 b6 87 bd ca 47 3f be ef 73 5f 3d
       -0.17009343 -0.06626607 -0.18679729 0.054553922
0000c0 90 2b 8f bd 40 a8 75 3d f8 86 b8 3d e6 89 c6 3d
       -0.06990731 0.05997491 0.09010118 0.09694271
0000d0 fb 4a 91 3d 0f 2d 11 3d 02 30 8b 3d f8 1a b6 3d
       0.070943795 0.03544336 0.06796266 0.08891863
0000e0 bd ac 24 bc 07 70 02 3b 51 59 23 be 15 38 35 be
       -0.01005095 0.00199032 -0.1595204 -0.17697175
0000f0 c2 b1 9e 3b 0a af 2c 3d 46 c0 a8 bd ce af 8a bc
       0.0048429677 0.042159118 -0.08239798 -0.016929533
000100 88 c1 47 3d a0 6f c0 3e 74 b4 ae 3e 9b f5 4b 3e
       0.04876855 0.37585163 0.3412205 0.1991791
000110 7b 89 cc bb 30 c8 1e 3e 96 f2 6b be c0 bf 25 be
       -0.006241975 0.15506053 -0.23041758 -0.16186428
000120 c3 09 3f bd 8b 8c 46 3d fc c6 2b 3e 7f 05 51 3e
       -0.04664017 0.048473876 0.16775125 0.20412253
000130 8e 2f c9 bd 6b 66 05 3e cf 0d 5a 3c 6f c2 39 bc
       -0.098235235 0.1302735 0.013308956 -0.0113378605
000140 d4 43 e5 bd fd c2 7b 3e b1 85 f3 3d ab c2 53 bd
       -0.11194578 0.24586101 0.11890734 -0.05169932
000150 05 dc 3a 3d b3 b9 2b 3b ff fa 10 3e 9f 13 a5 be
       0.045619983 0.0026203215 0.14158247 -0.32241532
000160 e4 d3 43 be 1f ca f9 3c 4b cd 3b 3d d9 05 17 3e
       -0.19123799 0.030491887 0.04585008 0.14748324
000170 b2 c5 86 3d 02 90 c5 3b ba 64 39 be 38 85 1b 3e
       0.06580676 0.00602913 -0.1810483 0.15187538
000180 1f 80 9b 3d 5e af 2e be ff e5 88 be 96 07 05 3e
       0.075927965 -0.17059085 -0.26737973 0.12991175
000190 c8 bb 93 bc 9c ab 92 3b 61 20 3f bd 8a 41 8a be
       -0.018033877 0.004476024 -0.04666174 -0.27003127
0001a0 2a 03 b4 bc 5d 47 d5 bd a0 7e c7 bc 8e ce c8 be
       -0.021974165 -0.10414002 -0.024352372 -0.3922009
0001b0 73 dd 9e 3c 52 6e ee 3d bb d8 11 be 55 35 ef 3e
       0.019392705 0.11642136 -0.14242832 0.46720377
0001c0 bc 91 0a bf db 51 df be 1d 60 04 bf 81 c4 0e c0
       -0.54128623 -0.43617138 -0.5170916 -2.2307436
0001d0 f2 aa ba 3b 26 dd 53 3d ea 0a 53 3d 8b de 3a 3c
       0.005696648 0.051724575 0.05152408 0.011405597
0001e0 52 13 b0 bd 0e d4 4a bd 01 4b 47 ba f0 71 7b bc
       -0.08597435 -0.049518637 -0.0007602424 -0.015346989
0001f0 b1 f2 0e bd 14 99 5a 3c a4 b0 5b be 76 32 19 3b
       -0.034899417 0.013342161 -0.21454102 0.0023376024
000200 97 3b 2e bd 3d cc ef 3b 98 0f 2e 3e 5d b7 26 bd
       -0.042537298 0.0073180483 0.16998136 -0.040702213
000210 ac 16 78 3c c5 aa a7 3c 64 fc a9 3d b6 79 b8 3d
       0.015142124 0.020467171 0.08300093 0.090075895
000220 be 56 1f 3c 83 c9 58 bc 1b 83 a1 3d 2b 8c 31 3e
       0.009725271 -0.013231638 0.078863345 0.17338626
000230 75 c1 36 3e b7 52 4e 3d 48 03 84 3d bf d7 96 3d
       0.17847236 0.05037185 0.06445938 0.07365369
000240 9c c1 a9 3d b9 2a 06 3d ee 68 5c 3c 58 a2 e8 3b
       0.08288881 0.032755587 0.013452752 0.007099431
000250 cd ee 8a bc eb f8 00 bc f5 f7 cd bd f8 00 5d bd
       -0.016959572 -0.007871847 -0.1005706 -0.053956002
000260 3c a8 e3 bd 90 f8 f3 3e 96 0a b8 bd fa d5 3e bf
       -0.111160725 0.47650576 -0.08986394 -0.7454525
000270 5d 86 95 be 34 11 a3 bf ce 2e b0 3d 7e b7 de 3c
       -0.29204074 -1.2739625 0.08602677 0.027187105
000280 a9 39 02 3c 80 e7 1f bb 99 6e 0f 3c 34 00 34 3d
       0.007948318 -0.002439946 0.008754396 0.043945506
000290 11 64 a3 bd cb e8 d8 bc 91 ff 8a ba 53 94 aa bd
       -0.079780705 -0.026478192 -0.0010604729 -0.08329072
0002a0 1a 97 b9 bd cd 2d b4 bc 3d ee 34 3e 67 a5 06 3e
       -0.090620235 -0.021994496 0.17669006 0.13149033
0002b0 38 52 1f 3e e8 13 2b 3e 74 d3 44 bd ea 95 39 3e
       0.15558708 0.16706812 -0.04805322 0.18123594
0002c0 02 2e 4d bd e7 9c 10 be 0f 01 a3 3d 33 8e aa 3d
       -0.050092705 -0.14122353 0.07959186 0.083279036
0002d0 28 7f a3 3d 5e 6f 9a 3e 57 af 38 3e 03 98 a5 bc
       0.079832375 0.3016309 0.18035637 -0.020214086
0002e0 05 be 1c 3a 6b 7d 28 3d 53 db 53 3d 7f 25 26 be
       0.0005979243 0.041135233 0.051722836 -0.16225241
0002f0 2b 55 9b 3d bf be 9c 3e 6b 5d 42 3e c4 bc 5c 3c
       0.07584604 0.30614278 0.18980949 0.01347274
000300 d8 73 8c 3c 6a 79 d3 be 3d 97 ef bf 79 fd 23 bd
       0.017145082 -0.4130357 -1.8718029 -0.040036652
000310 c5 ef 0d bb 69 fd d7 3c 77 ba 08 be 87 f9 2f be
       -0.0021657806 0.026365953 -0.1335238 -0.17185031
000320 cd 98 5c bd 87 2d ad 3d a4 73 30 3d c9 d4 29 3c
       -0.05385666 0.08455949 0.043079033 0.010365673
000330 2e a7 8e 3e 31 08 e5 3c 38 dd ef 3d 6b 9d 73 3e
       0.27861923 0.027958008 0.11712116 0.23790519
000340 21 45 c2 bd a7 f7 9a be f4 f2 a5 3d 47 91 2a be
       -0.094858415 -0.3026707 0.0810298 -0.16656981
000350 4e 33 d9 3c 39 1c 88 3c 99 ef 77 be be ba c7 bd
       0.026513722 0.01661502 -0.24212493 -0.09752415
000360 85 b5 f6 3d fe 27 25 3c e4 a3 10 be 08 21 dc be
       0.12046341 0.010080336 -0.1412502 -0.4299395
000370 37 91 05 bb 09 4d 3b 3c 50 c7 9f 3c e0 b8 27 3d
       -0.0020380744 0.011431941 0.01950422 0.040947795
000380 03 1b 88 bc f1 3a 23 bd be ec b2 3c 6f 2f 29 3c
       -0.016614443 -0.039851133 0.021841403 0.01032625
000390 2b 0c 5f 3c 10 6e bd 3b 9b af 97 3d 5b 37 20 3e
       0.013613741 0.0057809427 0.07406541 0.15646116
0003a0 25 37 e2 bb 22 58 c9 3d a3 cf bc 3d 15 75 0a 3e
       -0.0069035464 0.09831263 0.09219291 0.13521226
0003b0 c9 9e 58 3e f9 bb 5f bd 1b 1e 87 bd b7 f7 da bb
       0.21154322 -0.054622624 -0.06597539 -0.006682362
0003c0 57 a1 67 3d bb 47 d3 3d 31 3e a4 bd 60 f2 8b bc
       0.05655035 0.10316416 -0.080196746 -0.017083347
0003d0 ae d8 26 3c 91 7e e7 3d 5f 67 3a 3e 5f aa cf bd
       0.010183496 0.113034375 0.18203495 -0.101399176
0003e0 f4 a9 84 bb 1a f3 a8 bc be bd 3e bd 10 3e 9e 3c
       -0.0040485803 -0.020623732 -0.04656767 0.019316703
0003f0 10 49 b1 3e 29 8b b2 be ad 5f b1 be 07 a8 b3 be
       0.34626055 -0.34871796 -0.34643307 -0.35089132

hiddens.0.bias f4 [64]
000000 18 ed c7 3d dd 33 b4 3b 63 65 b6 bd ad 7f 8d bd
       0.09762019 0.0054993466 -0.08906057 -0.06909118
000010 50 ff 88 3e ab 7a 09 3d 53 fb 74 bd e1 07 9b 3d
       0.26757288 0.03356425 -0.059809994 0.07569862
000020 0d 4e f3 3d 20 79 6a be 52 7c d7 3d aa 37 96 3e
       0.118801214 -0.22897768 0.10521759 0.29339343
000030 89 ac 0c 3e f5 dc 19 3e 9d ac 00 3e d0 0f 21 be
       0.13737692 0.15025695 0.12565847 -0.15728688
000040 47 b2 03 3e 35 40 d2 3d 4f 9f 1e bd fc 9d 3a be
       0.12860976 0.10266153 -0.038726147 -0.18224329
000050 a0 e2 75 3c 95 3b 3c 3a c1 a7 b2 bd 15 90 59 be
       0.015007645 0.0007180509 -0.08723403 -0.21246369
000060 a3 6b 87 be 29 dc 97 3e 38 03 99 3d 32 46 74 3d
       -0.26449308 0.29660156 0.07471317 0.059637256
000070 f0 91 21 3e f8 a2 04 3e 9a b2 fc bd 83 94 ea bd
       0.15778327 0.12952793 -0.12338753 -0.114541076
000080 62 3c 39 3e 69 41 69 bd 92 97 f9 bd d5 10 02 3e
       0.1808944 -0.056947146 -0.12187113 0.12701733
000090 c1 93 4d bd b9 1d fb 3d a0 ea 16 be 9c 06 2a be
       -0.050189737 0.122615285 -0.1473794 -0.16604084
0000a0 a7 a8 11 be 7b 05 71 3d 2b 11 09 be ea 1d 5c 3e
       -0.14224492 0.058843117 -0.13385455 0.21495786
0000b0 e8 9e 8f bd 53 2b 1f bb 61 8a ee 3d 49 5b e5 bd
       -0.07012731 -0.0024287298 0.116474874 -0.11199052
0000c0 47 b2 d8 3d 81 c0 c9 3d e7 f2 b1 bd 5a 16 d0 bd
       0.10580879 0.0985117 -0.08688908 -0.10160513
0000d0 1d af 76 bd 70 38 7b 3d 85 de 68 be 2a 6d 1e bd
       -0.060225595 0.06133312 -0.22741134 -0.038678326
0000e0 78 a9 bf 3d af 5e 40 bc 67 b7 cf bd 41 80 b1 bd
       0.093584955 -0.011741324 -0.10142403 -0.086670406
0000f0 a8 c8 46 3d a1 27 0c bc 6a 0e 52 bd 7f 34 83 3e
       0.048531204 -0.00855437 -0.051283278 0.2562599

hiddens.1.weight f4 [32, 64]
000000 47 71 c5 be 19 0d ff 3d 5f e8 ae be a8 8a 2a 3e
       -0.38562986 0.1245367 -0.3416166 0.16654456
000010 16 d0 e3 3c d1 03 23 be 5f c9 1b 3e e0 19 45 3d
       0.027809184 -0.15919425 0.15213536 0.04812038
000020 fe 1c 78 3c 5c 53 79 3d 07 31 0b be 2c 28 b9 be
       0.015143631 0.060870513 -0.13592921 -0.3616346
000030 3f dd ab be 27 01 02 3e 96 2f 3a 3d 4a a0 11 3d
       -0.33567235 0.12695752 0.045455538 0.035553254
000040 dd 11 9b be f0 83 27 be 39 f8 43 3e 3d 0c 29 3e
       -0.30287066 -0.16358924 0.19137658 0.16508575
000050 60 38 92 be 35 58 20 bc 8a 15 4e 3e 07 33 80 bd
       -0.28558636 -0.009786655 0.20125404 -0.06259733
000060 be f8 d1 bd 3d 6e 16 bd 04 af 9e 3e 38 77 dd 3d
       -0.10252522 -0.036726225 0.309929 0.10813755
000070 65 8b 97 3c d2 3b 0e 3e cb c5 c4 be 39 d9 64 be
       0.018499086 0.13890007 -0.38432154 -0.22348489
000080 b7 7b b9 3d 40 5d 9f 3c 1a 69 f8 be 1c 34 2b 3e
       0.090568 0.019453645 -0.48517686 0.16719097
000090 cb 36 8e be 35 f4 3b 3c e8 ef 09 be 31 3f a6 bc
       -0.2777618 0.011471798 -0.13470423 -0.020293804
0000a0 84 c9 8e bd 3d 52 36 be 4f 7f 12 be 70 fe 09 be
       -0.0697203 -0.17804809 -0.14306377 -0.13475966
0000b0 c4 27 11 3e 5c da 38 be a9 62 95 bd db 3f db 3e
       0.14175326 -0.18052047 -0.072942086 0.42822155
0000c0 58 63 ed bd e5 4e aa be 31 87 38 3e 42 d3 24 be
       -0.11591214 -0.33263317 0.18020321 -0.16096213
0000d0 dd a9 3b bf 5b 8c fe be c0 12 8d be 67 51 ec bc
       -0.73306066 -0.49716458 -0.27553368 -0.02884741
0000e0 4c 7c df bd 3f 32 12 3e 76 7c a5 be f9 79 33 be
       -0.109123796 0.1427698 -0.3232152 -0.17526998
0000f0 41 d5 b6 3d 59 92 bf 3d eb d4 04 bf 77 8a 6e be
       0.08927394 0.093540855 -0.5188739 -0.23295008
000100 90 ff 9c 3b 0e f6 b9 3d 3f 89 bd bd 77 0d 9c 3d
       0.0047912076 0.09080134 -0.09254693 0.07619756
000110 fb 87 e9 3c b5 95 86 3d 3c cf bf bd 3c 86 bd 3c
       0.028507223 0.06571523 -0.09365699 0.023135297
000120 f6 20 98 bd 57 e5 e6 bd bc a6 2c 3c e9 fa bd 3d
       -0.07428162 -0.11274212 0.010537799 0.09276373
000130 69 d6 c2 bd 5e da b9 3c 08 cc b3 bd a0 20 d6 3c
       -0.09513552 0.022687133 -0.0877915 0.026138604
000140 24 53 95 3c 09 81 83 3c 98 da f1 bd e6 aa 57 bd
       0.018228121 0.01605274 -0.118092716 -0.052653216
000150 94 c0 8a 3b 64 d1 f6 bd c1 dc 48 bb 87 7f 97 bd
       0.004234383 -0.12051657 -0.0030649158 -0.07397371
000160 39 5d 10 bd fe 9e 90 3c 1a a7 f6 bd 82 63 9b bd
       -0.035245154 0.017653938 -0.12043591 -0.07587339
000170 41 75 07 3d 39 0d 06 be db d7 37 3d 72 65 c5 bd
       0.033070806 -0.13090982 0.04488359 -0.0963849
000180 bb 51 36 bc 0d d0 29 bc b3 9b 2f bb 0b 40 c8 bd
       -0.0111278845 -0.010364545 -0.0026795685 -0.0977784
000190 0b 6d a8 bd a7 60 3a 3d da 92 db 3d 18 88 de bd
       -0.08223923 0.04550233 0.10721369 -0.108658016
0001a0 d7 d0 b2 bd 60 54 cb 3c 54 b2 45 bc ad 4e c1 bd
       -0.08731239 0.024820507 -0.0120664425 -0.09438834
0001b0 b1 ef dd bd 60 8d 0c be 13 40 c9 bd 01 23 7e bd
       -0.10836733 -0.13725805 -0.09826674 -0.0620451
0001c0 13 9b e8 bd e8 05 ef bd 11 77 3e bc e3 9d 49 3d
       -0.11357703 -0.116710484 -0.011625067 0.049222838
0001d0 45 63 96 bd 9e f0 1c bd 49 c9 55 bd 37 71 23 3d
       -0.07343153 -0.038315408 -0.052193914 0.039902892
0001e0 95 8d ca bd 2f 51 6a bc 30 4f cf 3d e9 96 03 3d
       -0.09890286 -0.014301582 0.10122526 0.03212634
0001f0 d4 67 09 be 4c 2e 07 bd 3b 48 2c bc 66 57 a4 bd
       -0.13418514 -0.033003137 -0.010515268 -0.080244824
000200 d2 35 58 be 6e 81 50 be d6 02 37 be 7d ad be 3e
       -0.21114281 -0.20361874 -0.17872176 0.37241736
000210 d0 7e 83 bc dc 25 03 3e 65 c8 43 bf b1 bf 80 bd
       -0.01605168 0.12807411 -0.7647765 -0.06286562
000220 77 28 1d bf f9 03 3b be 87 39 ea bd 1a 6b 9f be
       -0.6138987 -0.18263234 -0.11436754 -0.311364
000230 6d d4 34 3e bf bc 65 3d 3f bc 29 3d c7 a7 73 3e
       0.17659159 0.056088205 0.04143929 0.2379447
000240 dd db a1 bd e3 0b 70 be 92 32 69 bd aa 5a 83 3b
       -0.07903264 -0.23442034 -0.056932993 0.0040086107
000250 d9 10 fb bb e6 ef 4e 3e 18 5e e0 3d 6b cb 7b 3e
       -0.0076619205 0.20208701 0.10955447 0.24589317
000260 05 24 e5 bd ff 43 61 be 39 36 b9 3d 01 ae 75 bd
       -0.11188511 -0.21998595 0.09043545 -0.059980396
000270 cb f2 c8 be 16 7b 9d be 66 d6 91 bb c9 3d 97 bd
       -0.39247736 -0.3075797 -0.004450607 -0.073848315
000280 15 81 36 be e7 4c f2 bd f7 4e 65 be 2c fc 80 3e
       -0.17822678 -0.11831074 -0.22393404 0.25192392
000290 53 6a 2d be 8c 1b bf 3e 2a bb f8 bc 8c 99 f9 3d
       -0.1693509 0.37325704 -0.030362684 0.1218749
0002a0 39 56 af bd 56 cc aa 3d 66 e4 40 3d 7b 2c 99 3c
       -0.085613675 0.08339755 0.047092818 0.018697968
0002b0 af 08 81 3d 03 a5 fa bc cd 70 bc 3d 3b 15 c9 be
       0.063004844 -0.030596262 0.092012025 -0.3927401
0002c0 31 1d 89 be 9e 90 be bd 7a f2 f7 be bd ee af bd
       -0.26780084 -0.09304927 -0.48427182 -0.085904576
0002d0 f9 fe 9c be 63 9c 12 3e 93 33 14 bf 28 74 cb bd
       -0.3066328 0.1431747 -0.57891196 -0.099342644
0002e0 da 5a 97 be 1e cf 37 be 62 33 ca bb 18 d1 96 3e
       -0.29561502 -0.17950103 -0.006170676 0.294564
0002f0 04 88 14 3f fc 94 a4 3e d8 29 03 be 13 b2 8f 3d
       0.58020043 0.32144916 -0.12808931 0.07016387
000300 78 88 b5 3d b9 ca 00 be 8e 79 24 3e 40 34 09 3f
       0.0886392 -0.12577333 0.16061994 0.5359535
000310 58 1b 8d bc 04 5d 0d be 33 d6 ae be c1 62 28 3d
       -0.017224953 -0.13805014 -0.34147796 0.041109804
000320 86 02 5a be 6d 6c 8c 3d 9a fd 0b 3d 3d e7 98 bd
       -0.21290025 0.06856618 0.0341774 -0.0746598
000330 c0 29 0a be c9 17 54 bd 04 27 c6 bd fc d2 c4 bc
       -0.13492489 -0.051780496 -0.096754104 -0.024026386
000340 80 a9 76 bd a1 c7 43 be 84 84 90 3e 4f 85 99 3d
       -0.06022024 -0.19119121 0.282261 0.0749613
000350 e9 80 49 bd 2e 28 48 be 10 5f b0 b6 1c 08 3d 3e
       -0.049195204 -0.19546577 -5.2562755e-06 0.18460125
000360 3f 0f 2a bf d2 e9 05 bc b1 60 2e 3e b3 81 4e be
       -0.66429514 -0.008173423 0.17029072 -0.20166664
000370 a6 75 9e bd 44 f7 84 be 72 24 fe 3c 36 15 91 bc
       -0.077372834 -0.259699 0.031023238 -0.01771031
000380 38 8d 74 3e cf 61 8a bd d6 ac b0 bd ea 27 a8 3e
       0.23881996 -0.06756937 -0.08626716 0.32842952
000390 89 28 7b be bf 44 ad 3e 54 57 bd 3c 39 8f 66 bb
       -0.24527182 0.33841512 0.02311293 -0.0035180582
0003a0 76 66 82 be fb bb 44 3e e7 85 f2 3d 80 4c 1d 3d
       -0.25468796 0.19212334 0.11841946 0.038403034
0003b0 5d 2f 9e be b9 47 c3 bc 1f 29 57 be f2 5a dc 3c
       -0.3089551 -0.023837911 -0.2101178 0.026898835
0003c0 1c c2 d6 bd 95 91 41 bd a7 85 be be 96 76 b5 3d
       -0.10486242 -0.04725798 -0.37211344 0.08860509
0003d0 0b cb 66 bd 7a e3 6c 3b 87 a1 c1 be be a1 5e 3d
       -0.05634598 0.0036146329 -0.37818548 0.054353468
0003e0 e0 74 81 be 2c d7 04 be 4f 32 fb bc 5b ec 6b 3d
       -0.2528448 -0.12972707 -0.030663637 0.057598453
0003f0 b5 ac 19 3f 80 1d f5 3e f1 87 ae 3d 92 9b 44 3e
       0.60029155 0.4787407 0.085220225 0.1919997

hiddens.1.bias f4 [32]
000000 69 ee 5c 3d 63 3e 04 be 56 bc a9 bd 1e 8a 2a 3d
       0.053938303 -0.12914424 -0.08287875 0.041635625
000010 9d 8d e2 3d 29 71 3a bd 77 e7 a3 3d 4b c5 44 bb
       0.11062167 -0.045518074 0.08003133 -0.0030024822
000020 ae bd e9 bd 33 b6 93 be fc cf 85 3e 46 d0 9a 3c
       -0.11413132 -0.28849944 0.26135242 0.01889814
000030 76 4f 16 3e 0b 7e 15 3e c4 0f a1 3d d7 70 04 bd
       0.1467875 0.14598863 0.07864335 -0.032334175
000040 69 4f a7 bd 0d 0c 39 3e 66 4c 0a 3e 4c 63 ea bd
       -0.08169443 0.18071003 0.13505706 -0.114447206
000050 46 58 d8 bc 4e ac 2f bd 12 b2 0e 3f 6a 7f ae 3d
       -0.02640928 -0.042888932 0.55740464 0.08520396
000060 cf e6 85 3e a8 b5 36 be 29 e3 9c 3d 92 3a b8 3d
       0.26152655 -0.17842734 0.07660515 0.089955464
000070 ed b1 8a 3e b1 de c9 3d 51 7a 36 3e b5 7d 24 3f
       0.27088872 0.09856928 0.17820098 0.64254314

hiddens.2.weight f4 [4, 32]
000000 bf 7a 2e 3e e4 f2 f6 bd 84 26 84 3e 17 06 87 3e
       0.17039011 -0.120580465 0.25810635 0.26371834
000010 0e a8 8a 3d 6d 1f 36 be a5 8a 02 bf 6b de 14 3e
       0.06770335 -0.17785425 -0.50992805 0.1453797
000020 f5 19 14 be 81 71 a5 be 63 0f a1 3e 7d 3e 1d 3e
       -0.14463027 -0.3231316 0.31457052 0.15355869
000030 ce c7 40 3e e1 2a 7e ba 34 f4 aa bd 78 c5 c0 3e
       0.1882622 -0.00096957205 -0.08347359 0.37650657
000040 13 99 1c be 82 76 2a 3e e8 f5 88 3e ca bf a0 be
       -0.15292768 0.1664677 0.26750112 -0.31396323
000050 47 b1 b8 be 82 50 8e 3a 2f 82 7b 3e 8a 7a a0 be
       -0.36072752 0.0010857733 0.2456138 -0.3134349
000060 24 ef 09 3f 90 ec 6e 3c ec 7c 8f be 89 73 fa 3d
       0.53880525 0.014582768 -0.28024995 0.12229068
000070 bf 2c 1b 3e ec 54 95 bd 81 53 19 3e 83 b5 86 3e
       0.15153788 -0.07291588 0.1497326 0.26310357
000080 73 df fa be 52 f3 b1 3d bb 98 8a 3e fb 63 56 3e
       -0.48998603 0.08688988 0.2706965 0.20936577
000090 83 74 eb 3d 95 f8 ef 3b 4e 93 dd 3e a6 06 33 3e
       0.11496832 0.0073233345 0.43276447 0.17483005
0000a0 98 a1 01 be 5a 4f ab be 83 e4 67 3e d2 7a 5a 3e
       -0.126593 -0.33458978 0.22645764 0.21335915
0000b0 2f ee 02 bf f3 ac 96 3d 69 e8 0d 3f a7 9d 52 3e
       -0.5114469 0.07357206 0.55432755 0.20567952
0000c0 e8 a9 ce bd bf c0 57 3e 50 0a 9b 3e 49 1c 8d be
       -0.10091001 0.2106962 0.30281305 -0.27560642
0000d0 bd 4e be be 4b 01 a6 3d d4 08 4a 3e 5c ca 8c be
       -0.37169448 0.08105715 0.1972993 -0.27498138
0000e0 53 cd c1 3e 28 11 1d be a8 55 ef bb 42 81 74 3e
       0.37851962 -0.15338576 -0.007303912 0.23877433
0000f0 c3 6d 64 3e 19 bb 82 bd 02 3b 0b 3e b1 d1 92 3e
       0.22307496 -0.06383342 0.13596728 0.28675607
000100 85 a8 fa bd 4a 1c 19 be a6 7d c9 3e 75 43 07 3e
       -0.12239174 -0.14952198 0.39353675 0.13209327
000110 4a 69 98 3e 49 41 ef be bc 9b 22 be 0e 84 0d be
       0.2976783 -0.46729496 -0.1587972 -0.13819906
000120 5f 30 b3 be 72 47 a4 be 35 b9 88 3d 56 bf 02 3f
       -0.34997842 -0.32085758 0.066759504 0.51073205
000130 37 ba ec be c6 5e 17 3f e9 c5 5c 3e 2c 22 c5 3e
       -0.4623582 0.5912899 0.21559872 0.38502634
000140 c6 63 d4 bd e5 9f da 3d 1a 0f ae 3e 25 81 b5 bb
       -0.10370593 0.10675029 0.33995897 -0.005539077
000150 1b 08 1b bf fc 74 af be b4 d9 c1 3d c3 ae e0 be
       -0.6055924 -0.3426894 0.09465352 -0.43883333
000160 5d 69 fd 3e 45 5f 71 be e9 1d 25 be e5 aa 8a be
       0.49494448 -0.23571499 -0.16124691 -0.27083507
000170 01 b1 e7 3d 71 b9 82 3e b2 ce 93 bd b4 80 b9 3e
       0.11313058 0.25532106 -0.072171584 0.36231005
000180 66 3f fd 3d d9 41 9f 3d 54 ed a4 bd 0d ee c5 3e
       0.12365608 0.07776231 -0.08053079 0.3865818
000190 6a 93 77 3e 54 1a 7a be 77 81 d0 be 63 59 ad bd
       0.24177328 -0.24424106 -0.40723774 -0.08464315
0001a0 23 4b 2f be 63 5d bb be 1d 7f 1d 3e 2a f8 f0 3e
       -0.17118506 -0.36594686 0.15380521 0.47064334
0001b0 3c 2f 2b be b1 b1 01 bd ff dc 67 be 09 00 ea 3e
       -0.16717237 -0.0316636 -0.22642897 0.45703152
0001c0 c0 85 55 3c 4f 43 ee 3c f0 5b 10 3d a8 37 25 be
       0.013032377 0.02908483 0.03524393 -0.16134512
0001d0 e6 e1 50 be d6 ef 1f be be b0 bc 3e b8 54 07 3d
       -0.20398673 -0.15618834 0.36853594 0.03303978
0001e0 97 42 16 3e c4 59 c0 3d 40 1f 77 be 8b 8b bc 3e
       0.1467384 0.093921214 -0.24133015 0.36825213
0001f0 40 7f c6 3e f9 9a ed bc 51 e6 7f 3e eb 27 2d 3e
       0.3876896 -0.02900456 0.24990202 0.16909759

hiddens.2.bias f4 [4]
000000 77 37 fa 3e 51 1e f0 3e d1 18 e5 3e f0 7f ad 3e
       0.4887044 0.4689813 0.44745496 0.3388667
