checkpoint.pth (torch_old, 19719 bytes, 6 tensors)

hiddens.0.weight f4 [64, 37]
000000 d5 04 ff bc ca 37 ae bd bc 4e 00 bd 98 0e 17 3d
       -0.031130234 -0.08506735 -0.031325087 0.036879152
000010 6b b0 27 3e 6b 8b 12 3d 2b 15 bd ba a7 f8 6d 3d
       0.16375892 0.03577749 -0.0014425864 0.05809846
000020 de a5 b1 3d ec fc 4f 3b 5e 29 87 be 1b 2e 14 3e
       0.08674215 0.0031736447 -0.26398748 0.14470713
000030 30 d0 e2 bd 85 d7 e2 be 0d b7 1d bf 4d 20 8d bb
       -0.11074865 -0.44305053 -0.6160744 -0.004306829
000040 f3 46 97 bd d1 1d 4b 3d 05 4d cc 3c 32 57 2e bd
       -0.07386579 0.049588982 0.02493907 -0.042563625
000050 2d 84 d8 bc e2 17 6a 3e 83 4a ee 3d 6d 0b 0a bd
       -0.026430214 0.22860673 0.11635306 -0.033702303
000060 78 00 d7 be e3 24 b4 3b 2b bd 9e bd 7f a5 12 bd
       -0.41992545 0.0054975613 -0.07750925 -0.03580236
000070 22 ef f6 3d 58 b0 32 3e cc fd 05 be e9 d7 80 3d
       0.1205733 0.17450082 -0.13085097 0.062911816
000080 9e 87 b5 3c af cc cd bc bb 07 f9 bd e0 cd 98 bc
       0.022159394 -0.025122015 -0.121596776 -0.018652856
000090 61 91 f4 ba 2f 15 8f 3e f4 5e fd 3d 1c 3f 1e 3e
       -0.0018659049 0.2794585 0.123716265 0.15453762
0000a0 67 85 0c 3e f2 de 29 be c2 19 3c 3e 90 b0 95 be
       0.13722764 -0.16588953 0.18369201 -0.2923627
0000b0 10 f9 00 3d 2e 5f de bd f4 75 05 bf 85 ee ef 3d
       0.031487525 -0.10857998 -0.5213311 0.11715416
0000c0 da 0b 9c 3d fe db c4 3d 22 c5 bd 3d 67 04 4a 3e
       0.07619448 0.09612273 0.09266116 0.19728242
0000d0 1a f9 18 3e 37 71 37 3d 78 fa 40 3e 43 e8 c2 3d
       0.14938775 0.044785704 0.18845546 0.09516957
0000e0 82 b7 e2 bd 5f 27 e7 bd f1 22 1a 3e 98 24 26 3d
       -0.110701576 -0.11286806 0.15052392 0.040562242
0000f0 34 07 0c bc 8f 33 fe 3c 44 c8 95 3d 07 2b cf 3d
       -0.008546639 0.031030444 0.07313588 0.10115629
000100 be 35 18 3d ca 2d 1b 3d 70 68 03 3d e9 78 68 3e
       0.037160628 0.037885465 0.03208202 0.22702374
000110 c4 18 2f 3e 78 9d 18 3e 76 a0 50 bd 73 3a f2 bd
       0.17099291 0.1490382 -0.050934277 -0.118275546
000120 c3 e3 06 3d cc 8b e0 bb 35 58 a2 3d 8e bf b6 3d
       0.032932054 -0.0068526026 0.079269804 0.08923255
000130 71 9e ad 3d c3 14 e1 3d 1a 2b f4 bc 95 76 0c bf
       0.08477486 0.10990288 -0.029805709 -0.5486844
000140 63 02 e1 3d d9 8d 35 3e a7 df 78 bd 74 78 34 bf
       0.10986783 0.17729892 -0.060760166 -0.70496297
000150 fc a9 84 be 97 54 44 3e 1f fb 21 3d 87 d2 b9 3d
       -0.25910938 0.19172893 0.03954613 0.09073358
000160 6a 71 36 3b 5c d3 d8 bd d3 11 4d 3e 50 83 b7 bd
       0.0027838596 -0.105871886 0.2002633 -0.08960593
000170 20 77 9c 3e 47 b9 53 3e 57 fd 2c bf 5c 75 d4 3d
       0.30559635 0.20676146 -0.67574066 0.10373947
000180 2a c0 e8 3d f3 e0 8a 3d 9e c2 4e bf c2 a6 2e be
       0.113647774 0.06781187 -0.8076571 -0.170558
000190 7e 74 2e 3e 14 90 e9 3d 67 de 57 bb c3 86 28 be
       0.17036626 0.11404434 -0.0032938959 -0.16457658
0001a0 3c 9e c9 be e6 b3 90 ba cb 35 83 3d 0f c3 12 be
       -0.39378536 -0.0011039942 0.064067446 -0.14332221
0001b0 50 3a b5 be 74 2d f8 3c 76 04 c9 b9 69 ef 1f 3e
       -0.3539605 0.030295111 -0.0003834103 0.15618671
0001c0 ab a7 fa be b7 55 65 bc c8 a4 22 be f8 3b 8c 3b
       -0.48956046 -0.013997487 -0.15883172 0.00427961
0001d0 1f 71 f8 be 0a 2a 9d be 44 a9 25 3e cf 5e 38 bd
       -0.48523805 -0.30696136 0.16177851 -0.04501229
0001e0 94 92 30 be 9a 42 ea bb 2b e3 7f be 33 11 08 be
       -0.17243415 -0.007149053 -0.24989001 -0.13287811
0001f0 6d 30 37 be fe 4a 15 3e e8 e3 73 be 6c d2 ea be
       -0.17889567 0.14579388 -0.23817408 -0.45863664
000200 01 69 39 3d ae 85 be be 99 81 72 bd bf 73 ee 3d
       0.045266155 -0.37211365 -0.059205625 0.116431706
000210 ac 4d b8 be 28 4c 39 be cb 99 00 be ba 2c 5e 3d
       -0.3599676 -0.18095458 -0.12558667 0.054241873
000220 08 90 1f bd a7 3f 3d be 75 57 c3 be 4c 1c 16 3e
       -0.03895572 -0.18481313 -0.38152662 0.14659232
000230 5b e6 97 3e f4 83 c3 bc ce a1 4f be 25 63 b3 3d
       0.29667935 -0.023866631 -0.20276567 0.08759145
000240 d3 4b c8 be bc e6 0a 3c e1 a8 8b 3d 98 23 1f bd
       -0.3912035 0.008477863 0.068193205 -0.038852304
000250 6b 8c 2f be a7 81 bf be d0 44 32 be a9 fd 93 3c
       -0.17143409 -0.37403604 -0.17409062 0.01806529
000260 80 aa 18 be 58 29 1f be 25 04 f5 bc 1e 4e 44 bc
       -0.1490879 -0.15543115 -0.029909203 -0.011981515
000270 53 ed 1a bd 9c dc 48 bd 12 23 07 3e 68 56 b4 be
       -0.037823986 -0.049038514 0.13196972 -0.35222173
000280 8d 9d 1b be 8e 97 af be cd cf 3d 3e 51 4b ce be
       -0.1519682 -0.34295315 0.18536301 -0.40291837
000290 b7 78 86 bd 1f 3d c3 3d 3c 5b a0 be c6 be 8d bd
       -0.06565993 0.09533142 -0.31319606 -0.06921153
0002a0 f3 a7 6a be 6c 04 32 be c3 64 67 3e 81 11 0e bc
       -0.2291563 -0.173845 0.22597031 -0.008671165
0002b0 96 49 a0 be 0d b5 00 bd ba 72 04 bd 9b 06 57 3d
       -0.31306142 -0.031422663 -0.032335974 0.052496534
0002c0 d8 f5 83 be b1 78 5f 3e 8d e0 f4 3d 9d a6 6c be
       -0.257735 0.21823384 0.11956892 -0.23110433
0002d0 1b fd b6 bd 9c c0 3f be 60 b5 a6 3e 9d c6 98 3d
       -0.08934995 -0.18725818 0.32560253 0.074597575
0002e0 2e 4e 29 bd 27 2e 21 bd 9c c2 83 3c a3 08 4d bd
       -0.041334324 -0.039350655 0.016084008 -0.050057065
0002f0 8e 47 2d 3d 27 fa 68 3d cb b2 9a 3e bd a3 91 be
       0.042304568 0.05687919 0.30214533 -0.28445235
000300 f9 9f af 3d 58 f8 39 be 72 be d6 bf 75 d5 0a bd
       0.08575434 -0.18161142 -1.6776869 -0.033894975
000310 3d 7e 95 3c 1a ff 00 be 5f 95 9b bd 24 1f 38 3e
       0.018248672 -0.12597314 -0.0759685 0.17980629
000320 42 6f 50 bc 77 9d 63 bd f0 57 1d 3b f3 1d 85 3d
       -0.012721838 -0.055570092 0.0024008714 0.06499853
000330 70 4e 91 bd 3c 61 e9 3b e7 b9 c1 3d 19 b1 f6 3d
       -0.07095039 0.007122187 0.09459286 0.120454974
000340 f7 69 34 3e fe 2e e4 3d 9f 47 7d bd ba 97 db bc
       0.17618547 0.111417755 -0.06183588 -0.026805747
000350 5e 6b 06 3d 4a 3f 24 3d ee ea 87 3d 66 b0 f4 ba
       0.032817237 0.04009942 0.06636606 -0.0018668293
000360 d2 42 81 bd dd 91 21 bd 3d 40 3a be a4 f0 7d be
       -0.06311573 -0.039445747 -0.18188567 -0.24798828
000370 d2 db d6 3c d4 f2 8d 3b 43 45 e7 be 01 fd 30 3d
       0.026227865 0.004331926 -0.4517003 0.043210033
000380 e5 a3 6e bd 0f df 86 3e 32 44 ac 3d 3d d9 c6 be
       -0.05826177 0.26342055 0.08411445 -0.38837615
000390 0c 1e 16 be 3f e2 08 3d 15 4d e4 3d bc 4f b9 3e
       -0.146599 0.03341889 0.11147515 0.36193645
0003a0 88 5d 2b 3c c6 23 06 bd 32 50 ff 3d dd 6a bc bc
       0.010459311 -0.03274896 0.12466468 -0.023000175
0003b0 74 46 fd bd a5 3b e1 bd 6e df 32 be 24 8b 08 3e
       -0.123669535 -0.109977044 -0.17468044 0.13334328
0003c0 af 39 ce bd 6b 1f 8e 3d b7 74 00 3d 1c 59 2c be
       -0.10069596 0.06939586 0.031361308 -0.16830868
0003d0 52 6e a8 bc ed 0b 80 3d f0 1c d5 3e 04 c1 59 be
       -0.020560417 0.06252275 0.4162364 -0.21265036
0003e0 cc 13 cd 3c a6 44 61 3d 61 79 00 be 4a 3c a0 bd
       0.025033854 0.05499711 -0.12546302 -0.07823999
0003f0 17 f4 98 3d f2 8b 84 bc f2 69 09 3d 80 87 a9 be
       0.074684314 -0.016180012 0.033548303 -0.3311119

hiddens.0.bias f4 [64]
000000 f7 0d 04 3e 2f 2f ee 3d bf 07 ff bd 9f 10 55 be
       0.12895952 0.11630093 -0.12452649 -0.20807122
000010 26 7f 06 3d 39 df de bb d4 c5 29 be 6b 0b 10 3d
       0.032836102 -0.0068015126 -0.16579372 0.03516714
000020 42 b4 88 3b aa ef 74 be 4b ad e5 3d de 56 46 3e
       0.004171879 -0.2391955 0.11214694 0.19369075
000030 39 4a 9a 3d 4b cb 92 3e 82 43 44 bd 3e 66 9f bd
       0.07533688 0.28670725 -0.047915943 -0.07783173
000040 b4 2c 48 bd 73 ad b1 3a d9 f3 17 3d 17 e0 52 be
       -0.048870757 0.001355572 0.037097786 -0.20593296
000050 97 93 2e be 9e ba af 3c 63 b1 ac bc 7d 9e 0d be
       -0.17048489 0.02145129 -0.021080678 -0.1382999
000060 e1 23 ba bd d3 e7 34 3e 18 34 15 bc 87 64 1e bd
       -0.090888746 0.17666559 -0.009106658 -0.03867009
000070 e9 ca f8 3d 4a 55 bf 3d cb a2 41 bd 5c 43 7d be
       0.12148077 0.093424395 -0.047274392 -0.24732727
000080 f0 91 23 3e 1c c5 80 bd fc 65 f5 bd a6 4b cf 3d
       0.1597364 -0.06287596 -0.119823426 0.10121851
000090 4a 6a a2 bc 73 da 3f 3d ad ae 2d be 00 d8 56 be
       -0.019826073 0.04683919 -0.16961165 -0.20980835
0000a0 62 bb 9a bc f8 5e 27 bc 8c f2 fd bd 0a a2 4a 3e
       -0.01888818 -0.010215513 -0.12399778 0.19788375
0000b0 30 c0 b0 bb 0d bc 00 be a1 46 4d 3e dc 2f db bd
       -0.0053940043 -0.12571736 0.20046474 -0.10702488
0000c0 6a a8 3b 3d 35 58 92 3c 44 a8 d3 bd 52 25 a9 bd
       0.04581491 0.017864326 -0.103348285 -0.082590714
0000d0 30 d9 16 bd 8a b7 f4 bd 35 65 5c be fd 06 78 bd
       -0.03682822 -0.1194907 -0.21522982 -0.06055354
0000e0 09 c7 f9 3d b0 a8 b9 bd cf 8f bf bd 66 f0 7c bd
       0.12196166 -0.09065378 -0.09353601 -0.0617527
0000f0 ec ea 4b bc 1b 3a 24 bd 0f d7 a8 bb 66 78 19 3c
       -0.012446146 -0.040094476 -0.00515259 0.009367084

hiddens.1.weight f4 [32, 64]
000000 c3 1e 94 bd 8f 4d b2 bd c0 24 88 bd 81 14 c3 be
       -0.0723243 -0.087061994 -0.066476345 -0.3810158
000010 5a c9 3a 3c 5d 26 8e bd 76 c2 77 be 72 b2 a6 bd
       0.011400545 -0.06940911 -0.24195275 -0.081395045
000020 fd 1d 88 bd af 69 7a 3e 13 eb 16 bd 72 57 70 be
       -0.06646345 0.24454378 -0.036845278 -0.23470858
000030 70 fc 0e bf 58 ac 56 3d c9 89 d0 bd 6c 95 86 be
       -0.5585394 0.052410454 -0.101825304 -0.26285875
000040 9b 43 a5 3c 66 52 de be b5 21 9c 3d 9d b5 40 be
       0.020173838 -0.4342224 0.076236166 -0.1881928
000050 d7 d5 4f 3e 34 da a8 3d 44 18 2e 3d 7f 38 34 be
       0.20296417 0.08244744 0.04250361 -0.17599677
000060 e0 3a c5 bd bf 18 71 3f b4 fa 8a 3d 1f fa e7 be
       -0.0963037 0.94178385 0.06786099 -0.45308015
000070 5a 70 60 3e aa a5 59 3e d7 25 d3 be e1 2a 32 be
       0.21917859 0.21254602 -0.41239807 -0.1739917
000080 92 c6 63 3e d7 e6 9c bd 74 b2 ac 3d 5b 47 f2 3d
       0.22243717 -0.07661217 0.08432475 0.11830016
000090 b2 74 a4 bd 73 45 87 be c9 00 03 3d 73 27 2b be
       -0.0803007 -0.26420173 0.03198317 -0.16714267
0000a0 1d eb a1 3d 04 c6 87 bc 4e 82 89 3b b0 fe 5f be
       0.079061724 -0.016573913 0.0041964417 -0.218745
0000b0 15 58 e9 be a2 f0 91 be f5 1c 6d be 2e ea 80 3c
       -0.45575014 -0.285039 -0.23155577 0.015736666
0000c0 ed 67 20 bd 75 e0 a0 3c c4 30 e9 be be d1 31 be
       -0.03916161 0.01963828 -0.45545018 -0.17365167
0000d0 7a c2 8d bd 39 51 88 be 2d 48 46 3e 0b a2 a9 bd
       -0.06921859 -0.26624468 0.1936347 -0.0828286
0000e0 8b c4 02 be 50 e4 21 3e 47 d0 07 be 59 37 a2 be
       -0.12770288 0.1580975 -0.13263045 -0.31682852
0000f0 2d 69 4a be b2 35 b7 be 3c 4c 97 be 07 2b 49 be
       -0.19766684 -0.35783154 -0.2955035 -0.1964532
000100 41 96 c9 3d c3 a4 44 3d 95 da 78 be fa ec cf bc
       0.09843112 0.04800869 -0.24302132 -0.025381554
000110 1d 75 a2 3d 8a dc 17 3e c5 5f e8 bc bb da 04 bd
       0.07932494 0.14830223 -0.028365979 -0.03243516
000120 ed 2f 97 3d 64 c6 b5 bd 89 02 25 bd dd 6b d8 3d
       0.07382188 -0.08875731 -0.04028562 0.10567448
000130 2f 4f 42 bd 26 2e 09 3d 77 eb 09 be 6c 74 1f 3d
       -0.047438797 0.033491276 -0.13468729 0.038929388
000140 6f 1e 20 bd 17 4a c4 3d 7c 7c 62 be 74 0c 59 bb
       -0.039091524 0.09584444 -0.221178 -0.0033118995
000150 ab c1 99 3d e7 59 c4 ba 8b c0 e2 bd 80 18 b1 bd
       0.07507642 -0.0014980406 -0.11071881 -0.08647251
000160 48 ee 29 3e 68 40 77 3e 11 0f 64 be 61 5d 0a 3e
       0.16594803 0.24145663 -0.22271372 0.13512184
000170 7e e7 a7 39 c5 70 2d 3e bf e9 23 bf d2 a3 07 be
       0.00032025197 0.1693755 -0.64028543 -0.13246086
000180 df 12 c2 be be 13 86 bd 7b bb 14 3d d2 d8 fe bc
       -0.37905023 -0.06546734 0.036311608 -0.031109247
000190 9f 40 02 bd 60 39 7e be f1 40 d2 bc 17 11 1d bb
       -0.03179991 -0.24826574 -0.025665732 -0.0023966485
0001a0 83 76 41 3d 01 15 a5 bd ab 5f 80 be 1f 46 de bc
       0.047232162 -0.08060647 -0.2507299 -0.027133046
0001b0 bf 5c 78 3c 29 d2 be be 10 8e 3e be 11 a1 ab 3d
       0.015158831 -0.37269714 -0.1860888 0.0838033
0001c0 c3 8a 97 3e ba 46 d0 3d c3 ec ad 3e 38 af ca 3c
       0.29598054 0.1016974 0.33969697 0.024741754
0001d0 b7 c4 c1 bd e6 60 e6 3d 71 f9 2c 3d e5 19 94 bd
       -0.094613485 0.11248951 0.042230073 -0.072315015
0001e0 91 09 85 bd 80 b9 ea bc 59 39 84 3e ab 71 ca 3e
       -0.06495965 -0.028652906 0.25825003 0.39539847
0001f0 97 45 1f be 67 57 9d 3d 76 0a 91 3d ec 5c 9b be
       -0.1555389 0.07682686 0.070820734 -0.3034433
000200 76 af 27 3d 5e dd c1 bd 5e cc 35 be 26 4f 1a bd
       0.040938817 -0.094660506 -0.17753741 -0.037673138
000210 a2 cf fc bd 9c 30 b8 3d ed c0 09 3d f2 3a 53 be
       -0.1234429 0.089936465 0.033631254 -0.20627955
000220 26 72 0c 3d 46 e7 1f be 7a 3c 14 3d c4 8c 9b 3d
       0.034288548 -0.15615568 0.036190487 0.07595208
000230 c4 82 05 be 06 db 95 bd 84 95 44 be ea 12 ae 3e
       -0.13038164 -0.07317166 -0.1919766 0.33998805
000240 8e e1 c8 be 5f 8f 71 bd 84 ad 57 3e 14 75 4d bd
       -0.39234585 -0.05897462 0.21062285 -0.050160483
000250 24 0d bd 3c b6 f1 ae 3d d7 f4 5c be 5e 18 80 3e
       0.023077555 0.085421965 -0.21577774 0.2501859
000260 fc 91 b2 bd a4 e6 52 bd ab 32 c7 3d 76 41 89 3e
       -0.087192506 -0.051489487 0.09726461 0.26807755
000270 82 cd bc bd 05 f3 1d 3e 9d bb 04 3f 7b c7 22 3e
       -0.09218885 0.15424736 0.51848775 0.15896408
000280 4d 62 9d bd f2 d1 23 3e 4e de 92 3d af 53 0a 3e
       -0.07684765 0.15998057 0.071713075 0.13508485
000290 a3 9d 9a bc 93 da 90 3e 17 a2 19 be 4b 52 e9 bd
       -0.018873995 0.2829176 -0.15003239 -0.11392649
0002a0 d9 26 24 3d 48 d6 db bd 8c ed b1 3c 4a e6 1a 3e
       0.04007611 -0.1073423 0.021719716 0.15126911
0002b0 10 e4 83 be 35 d3 3e be fa f5 d2 3d 44 76 3e be
       -0.25759935 -0.18635257 0.103008226 -0.18599802
0002c0 fe 48 4f 3d ee 36 6a be 74 a2 5a be 8d e0 7f be
       0.05060672 -0.22872517 -0.21351033 -0.24988003
0002d0 78 2a c2 bd 3c f4 74 be 4a db 2a be 2b a1 a6 bd
       -0.094807565 -0.23921293 -0.16685215 -0.08136209
0002e0 fd 89 01 bd fc 09 d5 bc 92 8b 70 bd 07 f8 4b bd
       -0.031625737 -0.026005737 -0.058726855 -0.049797084
0002f0 8b c3 55 3e dc f8 a2 3e a2 0f 0c be ac 1f 06 3f
       0.20875375 0.3183049 -0.13677838 0.5239208
000300 53 d3 8b bd 05 a1 2e be 7d 8c 8e 3e 44 e9 cd bd
       -0.06827416 -0.17053612 0.2784156 -0.100542575
000310 aa af 43 be 68 38 eb 3b 07 ba 8e be 52 0c 8e bd
       -0.1910998 0.007178355 -0.27876303 -0.06935944
000320 85 73 2c be 99 06 ef 3d a8 dd b5 be f6 f7 20 bd
       -0.16840942 0.1167118 -0.35520673 -0.039298974
000330 0f b1 76 be 61 57 ae 3d 17 ce 0b be fe 8d 6d bb
       -0.2409098 0.0851276 -0.13652836 -0.0036247964
000340 c4 4b c0 be 75 26 9d be b4 c1 aa 3e d4 8c ce 3d
       -0.37557805 -0.30693403 0.3335091 0.100854546
000350 81 43 a9 bd c7 49 3e 3e 08 a5 2d bf e2 21 7f 3e
       -0.082648285 0.18582831 -0.6782994 0.24915269
000360 2f f4 54 3e 11 82 93 3d ea 81 b2 bd 14 cc 41 be
       0.20796274 0.072025426 -0.087161854 -0.18925506
000370 a0 36 96 3e 9d 5c c5 bd ba 30 e6 bd 1f 09 04 be
       0.2933855 -0.09636805 -0.112397626 -0.12894104
000380 68 24 ac be 3a 09 ce bd b8 9f f4 3d 63 de 48 3e
       -0.33621526 -0.100603536 0.119445264 0.19616084
000390 c2 b4 71 bc a0 81 af 3d 3c b2 3a bd 3f fc 39 bc
       -0.014752569 0.08569646 -0.045580134 -0.011351644
0003a0 26 5b 0d 3e 68 bb c0 3d d1 8c 63 be 43 a1 b1 be
       0.13804302 0.09410745 -0.22221686 -0.34693345
0003b0 e7 1d 4b 3e f4 d3 98 3d 44 2d 43 3c a2 22 87 be
       0.19835626 0.07462302 0.011912648 -0.2639361
0003c0 44 e6 1f 3e 19 d5 43 3d c8 74 e8 be cd 58 ad be
       0.15615183 0.047810648 -0.45401597 -0.33856812
0003d0 8c 77 3b 3e f9 bd 98 be 0e f7 92 bc 2b 9b d9 3d
       0.18307322 -0.29832438 -0.01794007 0.10625299
0003e0 2a d7 17 be e4 cb 3b 3e 3c 59 8d be c8 41 23 3e
       -0.14828172 0.18339497 -0.27607143 0.15943062
0003f0 ee 60 02 bf 26 21 5c be f3 b8 75 be 04 50 bf 3e
       -0.5092915 -0.2149702 -0.23996334 0.37365735

hiddens.1.bias f4 [32]
000000 c2 00 a8 39 27 52 f4 3b 27 ed 41 be 4a 5a 07 bd
       0.00032044022 0.0074560824 -0.18938123 -0.03304509
000010 2a e4 c9 3e 62 55 c9 3d 88 58 cb 3d 41 0b f6 bd
       0.39431888 0.098307386 0.09928995 -0.12013865
000020 12 52 69 be ea f8 f3 bd 62 c3 08 3f 16 f8 ab 3c
       -0.22785214 -0.11912711 0.5342313 0.02099232
000030 fd d3 08 3e ae 92 55 3e 92 0f 81 3d a9 c6 16 3d
       0.13362117 0.20856735 0.06301798 0.03681055
000040 a3 f2 cf bd a8 95 09 3f fd 9b a7 3d 6c 32 04 be
       -0.10153701 0.5374398 0.08184049 -0.1290986
000050 52 6f 3c be 1f d8 c8 3c 72 94 8f 3e 51 08 cf 3d
       -0.1840184 0.024517117 0.28042942 0.10109008
000060 8d c0 fb 3e 98 7e 6e bd ef 4d 22 3d 8f 1f 11 3d
       0.49170342 -0.058226198 0.039625105 0.035430487
000070 66 fc 91 3c cd de c8 bc 3d 27 34 3e ad 96 0e 3f
       0.017820548 -0.024520302 0.17593093 0.55698663

hiddens.2.weight f4 [4, 32]
000000 4a 34 f4 3e 32 e8 d8 3d c3 67 1a be 67 2f 41 bc
       0.47696143 0.10591163 -0.15078644 -0.011791087
000010 69 15 c1 3e 0c 48 52 3e da 55 d3 3e cc fd da 3d
       0.37711647 0.20535296 0.41276437 0.10692939
000020 b6 b1 44 be e8 64 cc be d7 32 87 3e 5d 56 e2 3c
       -0.19208416 -0.39920735 0.26405975 0.027629072
000030 97 5d c8 3e 34 f1 ab 3e d5 ec 2b 3d 34 52 3d 3e
       0.39133903 0.3358246 0.041973908 0.18488389
000040 13 99 1c be ea 4d 64 3e 43 44 c1 bd 30 36 62 be
       -0.15292768 0.22295347 -0.09436848 -0.22090983
000050 b6 47 aa be 9a c9 0f 3f ca ce 8c 3d a1 e2 85 3d
       -0.33257836 0.56166995 0.068753794 0.06537367
000060 45 46 42 3e 36 07 5d be 1c 87 b6 be e1 8b 06 bf
       0.18972118 -0.21584782 -0.35649955 -0.5255719
000070 c5 02 c6 bd ef 2d 92 be 61 3e a9 3e b7 c2 93 3e
       -0.09668497 -0.2855067 0.33055404 0.28859493
000080 f5 f0 a6 3e 3b bc 83 3e 22 04 3d bd 7c f6 92 3e
       0.3260571 0.25729546 -0.04614652 0.28703678
000090 c7 9e b0 3e 2e 54 10 3e b1 50 bc 3e cf 4d b5 bd
       0.34496137 0.14094612 0.36780313 -0.088527314
0000a0 ff 74 b3 be 2d 8f 91 bd 77 d7 6a 3e 8d 81 17 3e
       -0.35050198 -0.07107387 0.22933756 0.14795513
0000b0 c1 42 7c 3e e7 18 88 3e 4b 06 97 3e e7 d0 10 3f
       0.2463484 0.265815 0.2949699 0.5656876
0000c0 96 41 b1 bd 40 e5 96 3e 46 23 82 3d 2b 46 3a be
       -0.08655088 0.2947178 0.06354384 -0.1819083
0000d0 a7 55 bd be ab 99 0f 3f 17 b3 44 3e b8 fa 09 3e
       -0.3697941 0.56093854 0.19208942 0.13474548
0000e0 ca 5b 64 3e 1a 43 d0 3c ac d9 af be ea 51 17 be
       0.2230064 0.025422622 -0.34345758 -0.14777341
0000f0 6b 0e 69 be 6d 02 fa bd d2 61 9b 3e 16 aa 45 3e
       -0.22759406 -0.12207494 0.30348068 0.19303164
000100 95 ac 5a 3f 53 c4 3e 3d e9 11 99 3e 7f 6e b0 3d
       0.8541959 0.046573948 0.29896477 0.086148255
000110 37 3f c4 3e c2 4d b6 bd 34 44 e6 3d 2b bf d4 be
       0.3832948 -0.0890155 0.112434775 -0.415521
000120 99 86 b4 be 2b 99 d4 be 3e 9e 1e 3e 01 cc dc 3e
       -0.3525894 -0.41523108 0.15490052 0.43124393
000130 4e 74 9a 3e bd 65 92 3e b9 19 cb 3e a4 ff 8e bd
       0.30166858 0.28593245 0.39668062 -0.06982353
000140 d4 c9 c4 bd 1c 61 3e 3e d7 43 ab 3e b5 8c 4f 3d
       -0.09608808 0.18591732 0.33450195 0.050671298
000150 ac 63 02 bf e3 44 d7 3e 37 af 70 bd c9 22 35 be
       -0.5093334 0.42044744 -0.058760848 -0.1768905
000160 f6 b5 60 3e 48 ba 7e be 52 0a 97 be 2c ee d1 bd
       0.21944413 -0.24875748 -0.2950006 -0.10250506
000170 39 b3 6e be 07 33 75 3e 31 53 7d 3e 94 ee ab 3e
       -0.23310556 0.23945247 0.24738766 0.33580458
000180 be ba b8 3e dd 13 9f 3e ed e8 20 bf 73 37 2f 3f
       0.36079973 0.31069842 -0.62855417 0.68443984
000190 07 d2 a2 3e 99 ec d1 bd 54 26 04 be 36 55 ed be
       0.31800863 -0.102502055 -0.12905246 -0.46354073
0001a0 13 d6 a9 be 9d 47 54 be d1 7c a5 3e d6 52 01 be
       -0.33171138 -0.20730443 0.3232179 -0.12629256
0001b0 7b 4c ff 3e 1d 35 d6 3d 5f 85 0d 3e 20 5c 02 3f
       0.49863037 0.10459349 0.13820408 0.5092182
0001c0 c0 85 55 3c 64 44 45 3e 7f a1 90 bd ba 3f 52 3e
       0.013032377 0.1926437 -0.07062053 0.20532122
0001d0 f2 de b2 be 5e 10 30 3f a0 91 9b 3e 84 3b 7b 3e
       -0.3493572 0.68774974 0.3038454 0.24534422
0001e0 d9 ab 9c 3e ef 28 91 3e 2b cc 4d be 71 5f 82 be
       0.3059986 0.28351542 -0.20097415 -0.2546344
0001f0 0c 7a 5e 3e 0b 69 6b 3e f2 fd 52 3d c5 a8 1b 3e
       0.21726245 0.2298929 0.051511712 0.15201099

hiddens.2.bias f4 [4]
000000 9b 76 dd 3e 2c 56 9e 3e a7 2c d0 3e 89 64 91 3e
       0.4325455 0.3092512 0.40659067 0.28397015
